example_data/fit_smplx_params.npz (npz, 4796 bytes, 11 tensors)

body_pose f4 [1, 63]
00000000: 6e1d 263d 3de6 543d e3e7 de3d c9c8 163d
00000010: 1527 33bc ce47 edbd 3046 36bc fb77 033c
00000020: a1b5 daba cea1 88bc 5942 113c 2b2b 9ebd
00000030: 34f1 4ebc 216c 2ebd d0c1 b33d ae62 b83c
00000040: 3f93 e03b d449 36bb e1f3 85bd 57dd 56bd
00000050: 09dc 1ebd 96d2 9abd d03a 6c3d c309 493d
00000060: 83f9 463b f0a7 393c 72e5 97bb be65 263e
00000070: e84b 873e 5657 91bd 870b 8e3e df5f 36be
00000080: 0333 30be 8b76 a13d ee4b 07be 5d64 e8ba
00000090: 0701 68bc f710 7dbc 9650 243d 2da8 a83a
000000a0: c4ae fabb 7561 4dbd ef1c 3a3a cb03 fb3d
000000b0: 9f57 d73b cec7 493e 0247 6ebd 978a 74bf
000000c0: eab4 803e 4b5a c33d 7a56 773f db33 0a3e
000000d0: 3028 37be 38a5 4bbd 5cc4 203e e769 663e
000000e0: 12b1 493d 6be4 22be 3b5c 63bd 1312 16be
000000f0: 90a1 7ebe d469 b13c 6d71 1b3e
0.04055541 0.051977385 0.10884073 0.036812577 -0.010934611 -0.11585961 -0.011125132 0.008024211
-0.001668621 -0.016678717 0.008865916 -0.077230774 -0.0126307495 -0.04258359 0.08777201 0.022507992
0.0068534906 -0.0027815 -0.06540657 -0.05245718 -0.03878406 -0.07559697 0.057673275 0.049081575
0.0030361123 0.011331543 -0.0046355063 0.16249749 0.264251 -0.07096736 0.2774317 -0.1781001
-0.1720696 0.078839384 -0.13212559 -0.0017730106 -0.014160401 -0.015445939 0.040115915 0.0012867503
-0.007650228 -0.05014177 0.00070996484 0.12256583 0.0065717245 0.19705126 -0.058173187 -0.9552397
0.25138026 0.095387064 0.9661633 0.13496344 -0.17886424 -0.04971811 0.15699905 0.22501336
0.049241133 -0.15907447 -0.05550788 -0.14655332 -0.24866319 0.021656908 0.15179987

global_orient f4 [1, 3]
00000000: 0fce f6bc 698e 70bc c7ce 023a
-0.030127553 -0.014682391 0.00049899187

betas f4 [1, 300]
00000000: 9378 ee3e 0dbe 67be 8e77 29bf d672 11bf
00000010: e29f 14be 76e4 e9be dc72 3abe 81b8 93be
00000020: 6e5d 2fbf 83c5 f2be 55d0 253f 433b b9be
00000030: 487e 42bf fdd9 4e3f 63d6 78bc f22d 593f
00000040: fd10 38be ad78 1bbf 1312 f6bd b7af 03bf
00000050: b379 31bf d1f8 d23e 35f0 1c3f 2c66 0c3f
00000060: e487 05be 4493 393f f4ed c5be 223a 003f
00000070: 94b1 753f dac8 37bf 5356 5cbf 142d 16bf
00000080: 17a1 6d3d 5710 d93d b39e ea3d f040 3bbf
00000090: 5194 dcbe 8a2d 98bc 15ab 9ebe b581 253f
000000a0: 0a70 6cbe cce8 68be 2abb 1a3f ef46 4cbf
000000b0: 3da1 97be 2e14 3a3f 532a 363f 1bfe ebbe
000000c0: c2a4 f9bd 608b 31bf e6fc 32be 81f9 d33e
000000d0: a472 f9be 7cb5 2e3f c6fc 69bf fc97 22bf
000000e0: 4f62 2cbf 1ea1 4abf 3cb4 bebe 0b7b 5b3f
000000f0: 3f0d bc3e 5126 3f3f f992 b6bc bf52 143e
00000100: d470 e5be 93a3 13bf 94a3 39be fb68 363e
00000110: 349b 443f f612 423f db43 043c 4fe9 a0bd
00000120: 831d 083f ca1f 013f d6be 253f 2d24 43bf
00000130: 8601 c2be 8f7b b63e 3828 fd3e c78f 7d3f
00000140: 0108 20bf 2e6d f1be 63b7 613f 823a 5bbf
00000150: 383c 353d e1b4 323f 0fef 1f3f 9406 a4be
00000160: b18b 2bbf 79df 15be e1d8 593f 94dc ea3d
00000170: 79a6 05bf 4db1 b43e 596a 2f3f 610b 203f
00000180: 5e31 273f 9585 a63e 7cb4 1f3e b396 07bf
00000190: 9134 953e 9503 2d3f f323 91bc 124e b7be
000001a0: 276f cc3d 1749 d63e 722d b23e 4fe6 1abf
000001b0: 0db6 823e 66a8 173f 78ed 4fbd 90e5 fa3e
000001c0: 0608 7ebe 8592 97be d7ea 233f 4660 c5bd
000001d0: 59e3 43be d105 2c3f 9ae9 69be 3d70 ff3e
000001e0: a6b1 433f eba5 2bbe 4115 e63e f541 3d3d
000001f0: 4a51 34be a56d a23e c633 6cbf 855d 303f
00000200: 68e6 37bf 2650 31bf 2bc0 183f 7a8f 0e3f
00000210: b5e1 f2be 96c8 16bf 2281 8d3e c271 28bd
00000220: 941b 0f3f 38f1 e7bd 7b90 813d 8ef4 ddbb
00000230: 9a90 ed3e 974f 263f 34c9 a9be 7cb4 16bf
00000240: 6f45 08be 169f 243e d806 cb3e 842d 0c3f
00000250: 3487 4dbf d381 f9be 97a7 a2be c96c 69be
00000260: ca56 be3e 7b97 f43e 8156 70be 1e61 b13e
00000270: b31c 943e 3948 8fbe 6b99 21be 0e50 963e
00000280: bd4c 5abe fe2e a7bd 88bf e1be ee31 133d
00000290: ad1f 86be d79d 0fbf f9b9 1ebf d9c0 293e
000002a0: 6712 e03d 5065 18be c08f a93e f5ff 41be
000002b0: c798 bc3e d217 ddbe fd59 653e e17d 1abf
000002c0: 9211 2dbf 09c2 b2be 57df c4be 34c4 82be
000002d0: f61b 10bf 956d 8e3d 238e fa3e 651b 3f3e
000002e0: c4d4 963e 92e8 d63d fb7c 0bbf 9f75 a03d
000002f0: 7dde fb3e 7918 10be 08a9 023f 65a9 1f3f
00000300: 19ac 9bbe 3c0c 93bd 6960 69be 48d0 183f
00000310: 0eb3 78be 26e1 18bf a02d b8be 0b2a 133f
00000320: a764 2abe 3449 3ebd 020d 233f 302a d53e
00000330: a821 e2be 7d16 263e 6875 98bc fbab 35be
00000340: 4f36 1f3f 1cf3 ac3e 145e dabe 0e79 ea3d
00000350: b477 bc3e 0d2b be3e 9e1f f83e 7097 19bf
00000360: 363d 50be df10 1b3d 2624 bf3e dc50 6ebe
00000370: c47b 3cbe c6f5 d53e d392 083f a696 f3be
00000380: d2d8 11bc 9874 87be f438 b43e 2669 1fbe
00000390: a8ff ecbe b1f2 a03e 877a 89be 0ab8 2b3e
000003a0: fe8f a0be fe33 fabd 8a86 7c3d 79d3 44be
000003b0: 9744 19bf ae11 e1be 0921 7cbe 70f5 8b3e
000003c0: 03b2 82bd 3d82 84bd da3e f0be 1057 0dbf
000003d0: be31 8c3e d90b a63e 94ea 97be 64be 443d
000003e0: 4262 853e 679c d6be c69c 1c3e 07c0 db3e
000003f0: c62d d8be a710 ebbe 4d55 693d 8ec6 dfbd
0.46576366 -0.22631092 -0.6619805 -0.5681585 -0.14514115 -0.45682114 -0.18207878 -0.28851703
-0.6850194 -0.47416314 0.64771014 -0.36178026 -0.7597394 0.80801374 -0.0151878325 0.8483573
-0.1797523 -0.6073101 -0.12015166 -0.51439995 -0.69326323 0.41205457 0.61304027 0.548434
-0.1304012 0.72490335 -0.38658106 0.50088704 0.9597409 -0.7179085 -0.8606922 -0.58662534
0.058014955 0.1059882 0.11456051 -0.7314596 -0.43081906 -0.018576402 -0.309899 0.6465104
-0.23089615 -0.22745055 0.6044184 -0.79795736 -0.29615203 0.7268704 0.7115833 -0.46092305
-0.12189628 -0.69353294 -0.17479286 0.41401294 -0.48720276 0.68245673 -0.91401327 -0.6351316
-0.67337507 -0.79152095 -0.37246883 0.85734624 0.36728856 0.7466784 -0.022286879 0.1448469
-0.44812644 -0.5767147 -0.18128806 0.17813484 0.7679932 0.7581018 0.008072819 -0.07857
0.5317003 0.5043913 0.6474432 -0.76227075 -0.37891787 0.35641143 0.49444747 0.9904751
-0.62512213 -0.4715361 0.8817045 -0.8563615 0.044246882 0.6980725 0.6247415 -0.3203627
-0.6701003 -0.1463603 0.85096556 0.11467853 -0.5220714 0.3529152 0.6852165 0.6251736
0.65309703 0.3252379 0.15596193 -0.52964324 0.29141667 0.6758359 -0.017717337 -0.3580175
0.09982138 0.41852638 0.34800297 -0.60507673 0.2552952 0.5924133 -0.050763577 0.49003267
-0.24807748 -0.29603973 0.6403021 -0.09637503 -0.19129695 0.67196375 -0.22843018 0.4989032
0.76442945 -0.16762511 0.4493809 0.04620548 -0.17609134 0.31724277 -0.922665 0.688927
-0.7183595 -0.6926292 0.59668225 0.5568768 -0.47437826 -0.5889982 0.27637583 -0.041124113
0.55901456 -0.11325306 0.063263856 -0.006773538 0.46399385 0.64965194 -0.33161318 -0.5886915
-0.13307737 0.16076311 0.3965366 0.5475695 -0.8028443 -0.4873186 -0.31768486 -0.22795404
0.3717559 0.4777182 -0.23470499 0.34644407 0.28928146 -0.2798479 -0.1578118 0.29357952
-0.21318336 -0.0816326 -0.4409144 0.03593629 -0.26196042 -0.5610022 -0.6200252 0.16577472
0.1094101 -0.14882398 0.33117485 -0.18945296 0.3683531 -0.43182236 0.22397609 -0.60348326
-0.67604935 -0.34913662 -0.38451645 -0.25540316 -0.56292665 0.06954495 0.48936567 0.18662794
0.29459202 0.10493578 -0.5448758 0.078349344 0.49193183 -0.14071836 0.5103917 0.6236785
-0.30404738 -0.07180068 -0.22790684 0.5969281 -0.24287054 -0.5971855 -0.3597231 0.5748603
-0.16639958 -0.04645653 0.63691723 0.4163375 -0.44166303 0.16219516 -0.018610671 -0.17741387
0.62192243 0.33779228 -0.426499 0.114488706 0.36810076 0.3714222 0.48461622 -0.599967
-0.2033585 0.037857886 0.37332267 -0.23273033 -0.18406588 0.41789073 0.53349036 -0.47575873
-0.008901792 -0.2645614 0.35199702 -0.15567455 -0.462888 0.3143516 -0.26851293 0.16769424
-0.31359857 -0.12216948 0.061651744 -0.19221295 -0.59870285 -0.439588 -0.24621977 0.2733569
-0.06381609 -0.064701535 -0.46922952 -0.5521097 0.273817 0.32430914 -0.29671156 0.048033133
0.26051527 -0.419162 0.1529418 0.42919943 -0.42222422 -0.45911142 0.056966115 -0.10926543

left_hand_pose f4 [1, 12]
00000000: 160d 78be 9e2d 48bd 13a3 253d 48e5 e4be
00000010: 7565 ed3e 81ea bbbd 4d97 a83e b2ba e1bc
00000020: 6665 1cbe e7aa 413d b365 ba3e 93fa f73e
-0.24223742 -0.04887163 0.040438723 -0.44706178 0.46366468 -0.091755874 0.32927933 -0.027554844
-0.15273055 0.047282126 0.36405715 0.4843336

right_hand_pose f4 [1, 12]
00000000: 2a98 7ebe 79ca 08bd 1a98 fc3c f069 d2be
00000010: 022a fe3e 2699 97bd 1591 3e3e 2bff 98bc
00000020: 9182 16be ff9d 033d 440f a83e 2af0 003f
-0.24862733 -0.033396218 0.030834246 -0.4109645 0.49641424 -0.074022576 0.18610032 -0.018676361
-0.14698245 0.0321331 0.32824147 0.5036646

leye_pose f4 [1, 3]
00000000: 2746 243f b8ea 5bbf 6be6 3cbf
0.64169544 -0.8590503 -0.7378909

reye_pose f4 [1, 3]
00000000: d038 243f a0fa 4f3f 024f 223f
0.6414919 0.812418 0.63401806

jaw_pose f4 [1, 3]
00000000: 340c 16bd 5abe 4739 69db 023d
-0.03663273 0.0001904903 0.031947527

expression f4 [1, 100]
00000000: 0703 d8be de47 fe3e f6e1 9ebe 58af 92be
00000010: b8b5 04bf 7fc4 92be 0860 33be e6dd a43d
00000020: 9822 f3be 426e bc3e 75dc 01be fe48 cc3e
00000030: 9ef1 2bbf 28ab bcbd 18f1 803e 861d 9c3e
00000040: d60a febd 89c1 853d e94a aebe 839f d6be
00000050: 2773 f13e 3f9f bb3e 7370 ebbd 7e2b afbe
00000060: 8ec3 5b3e 796c aabe 0ea7 8dbe 9725 b53e
00000070: e6b3 dfbe 9826 843e 8432 813e 24ca 3c3e
00000080: baf2 b3be 8d50 9dba 2d11 d4be d81a e8be
00000090: 33e5 f8bd 77ab 863e 2bf9 8e3d ce2e 75be
000000a0: 5e73 8a3d ac74 2e3d 4d28 c4bd deb6 ecbe
000000b0: 47ad c1bd a762 a03e be07 823e 1fb3 9abe
000000c0: 2d8e 8e3e 1268 4dbe 108c 55be 890a 61bd
000000d0: 4a28 acbe 481f 75be 92ca b93e 8a46 59be
000000e0: 8b28 8b3e 20c4 423e d202 2c3e 41da 343d
000000f0: ee29 89be 2e0c 43be 442a 93be 6f0f a6bd
00000100: 7672 d2bd 371f 6dbe 9ba7 3d3e 3398 94bc
00000110: c593 8f3d eae6 de3e 1b6c 50be d79e a9be
00000120: 6a1c d9bd 15f8 4fbe 75f6 36be c357 e93d
00000130: 4f11 bf3e 61a7 72be 4944 c93c b257 c53d
00000140: a026 013b 2024 14be cef9 c9bc e504 063e
00000150: c25a ae3d 1520 42bd 809f 893d 0df6 a33d
00000160: 0b9e e6bd 0348 f03d 76bd b23d dbcd 953e
00000170: e387 b33d ebab 8d3e 88ba 24be b301 d0bc
00000180: bafe 9f3c d4cb c3bd a86f 4d3e 6851 81be
-0.4218981 0.49664205 -0.3103177 -0.28649402 -0.5183978 -0.2866554 -0.17517102 0.08050136
-0.4748733 0.3680287 -0.12681754 0.3989944 -0.67165554 -0.09212333 0.2518394 0.30491275
-0.124044105 0.065310545 -0.34041527 -0.41918573 0.47158167 0.36644933 -0.11496057 -0.3421287
0.21461317 -0.33285883 -0.27666515 0.3538024 -0.4369194 0.25810695 0.25233853 0.18436486
-0.35146123 -0.0012002155 -0.41419354 -0.4533298 -0.12153091 0.26302692 0.06981119 -0.23943636
0.06760286 0.042591736 -0.09577999 -0.46233267 -0.09456878 0.31325266 0.25396532 -0.30214784
0.27842847 -0.20059231 -0.20854211 -0.054941688 -0.33624488 -0.23937714 0.3628736 -0.21218315
0.2717937 0.19020128 0.16797951 0.044153456 -0.26789802 -0.19047615 -0.28743184 -0.081084125
-0.10275738 -0.23156439 0.18520968 -0.01813898 0.07010607 0.43535548 -0.20353739 -0.33128998
-0.10601123 -0.2030948 -0.17867453 0.11393692 0.37317893 -0.23696662 0.024568694 0.09635867
0.001970686 -0.14466906 -0.024655249 0.13087805 0.085134044 -0.047393877 0.06719875 0.08005915
-0.11260613 0.11732485 0.08727543 0.29258618 0.08766153 0.27670226 -0.16086781 -0.025391435
0.019530643 -0.095603615 0.20062125 -0.2525742

transl f4 [3]
00000000: 00d6 2e3a cb2f ebbe b09e 803b
0.0006669462 -0.459349 0.003925167

scale f8 []
00000000: 0000 0000 c23c e23f
0.5699167251586914
